ckpt/best_model.tflite (tflite, 141116 bytes, 6 tensors)

conv2d/Conv2D_bias f4 [32]
00000000: efae a33d b323 98bd e809 bc3c dd9f ecbd
00000010: b5fd fe3c b421 4b3d 58a7 91bc c9c1 6abd
00000020: ff78 58bb 594b 87bb 92e9 293e aca8 20bd
00000030: bab5 31bc 0eb2 febb 2c2d 23bc f12a 43bd
00000040: 8931 debd 85ff cebd 8855 09bd 6c53 04bc
00000050: 4ab9 60bc 63d2 53bd 590a 4abc 8ee2 76bc
00000060: 21e4 923d c2b7 12bd 6fdd 223e b19a 71bc
00000070: cc2a 41be d303 86bb e4a3 a8bc fdca 84bd
0.0799235 -0.07428684 0.022953942 -0.11553929 0.031126836 0.04959269 -0.017779991 -0.057313714
-0.0033031104 -0.004128855 0.16593006 -0.039223358 -0.01084655 -0.0077726906 -0.0099595 -0.047648374
-0.10849292 -0.1010733 -0.033528835 -0.00807653 -0.013716051 -0.051714312 -0.012331569 -0.015068663
0.071724184 -0.035819776 0.15904783 -0.014746354 -0.18863982 -0.0040898114 -0.020585962 -0.064840294

conv2d/kernel f4 [1, 3, 3, 32]
00000000: f0ae af3e d4a0 d33d 674d 9fbd 1b5d b8be
00000010: f566 c53e 3377 953e 536c f9be a30b 223e
00000020: 8812 053c 00d4 4fbd 5b2e e3be 56fc ddbd
00000030: f1f3 3abe cff8 8cbe c535 003d 73da 7e3d
00000040: a799 f93d f6cd f63d 1ded b73d fbfb d0bd
00000050: 2c35 a7bb 1b3d e7bc 2df7 483d 5c94 9f3d
00000060: a32c dc3e 2353 be3d 3f7b d8be b051 e1be
00000070: 55e6 413e df29 03be 76d2 0e3e 418e 263d
00000080: 823f a83e aea7 4cbe d965 41be 89f1 3abd
00000090: b3a9 713e 9bd6 d13e 4129 3bbe 482f dbbd
000000a0: 1087 cc3e 4a48 f33c 046f 30bf f4f7 c6bd
000000b0: 3804 b2be 8c58 57bc 707d e5bd 5443 163e
000000c0: f6e3 c83d 7481 3c3e fb6d a5be 6a51 b4be
000000d0: 3aa4 983d 55f2 6a3e f0c5 c6be e5fc 053e
000000e0: 1d6e 74be 708b ac3c 8dd2 b9be 3787 97be
000000f0: 820c db3d cfcd 073e 540f 2fbe 2d73 113e
00000100: a11a 763e b1b3 87be a3ff d8be 5e17 623e
00000110: 22f1 45be 3f8e c73e 4289 893e da40 893d
00000120: 9920 c93e 27c2 d93d f0aa 793d 9ed7 4c3d
00000130: f2a7 87be ddb3 433e e4ec 003e d523 03be
00000140: 850d 18bc ac39 8bbc f0cd 9cbe 0951 81be
00000150: be35 00bf 9cbb 923e 7639 a8be bc9d 0238
00000160: 8c0d a6be 03e7 2a3d 51e3 e13d c2f8 263c
00000170: 78bd 09bf a83f 033e 2048 ffbc f03f 973d
00000180: bf3c ad3d ed12 d43c 0fbb 02be f676 97bd
00000190: 4775 eb3e 24d7 66bd 03ac bcbe db2f e73d
000001a0: 4be7 d1be 9ee5 7fbd 87d2 913e 1cc1 b1be
000001b0: a739 efbd db63 aabe 2667 98bd c12c 403e
000001c0: e99a dfbc aeb4 93bd 2519 7e3e 90f3 833e
000001d0: 2b47 943e 0f5c 9abe 55fd ffbd 0f94 033e
000001e0: 750d 823e 09db 843d edcb e8be 5a2b d7be
000001f0: b82b 2f3d 96af 9c3d e90b 833d 9c5f 983d
00000200: 9b59 4bbc 6082 1f3e 372a 46be fa6f 983e
00000210: 42cc 563d b9d6 0abe d29b c23c b083 0fbd
00000220: f0c2 5abd 175b 1d3e 58ea 73be 87ab 1cbd
00000230: 7f6a 40bd f47e 343e 2ecc a03c c83c 103e
00000240: ef56 d23d 71dc 643b 142d 0b3c 576b 0c3e
00000250: c2bc e33c 504d 14be 4efa 39be 7330 be3d
00000260: f4e1 59bf 93b6 7a3c 50c1 10be eb78 fe3d
00000270: 0313 ba3e 3c12 1a3e 32b2 8f3d 7592 6f3d
00000280: 8705 143e c091 74be 568d 763c 54f4 da3d
00000290: f04f 12bf 6202 59be cdc8 983e d341 4d3d
000002a0: 5e7b ab3e 7d2c c23d ff30 27bf 1ea5 5d3e
000002b0: 523f 533e 1ffd d33d e83a 433e 364b 94be
000002c0: 99be 32be e2bd 2aba 9c76 413d 621d 293e
000002d0: fb7d 15bf def2 843e 4091 033e ac32 74be
000002e0: 64c2 603e 60e8 e63d bf50 b13e e3e1 993e
000002f0: 39c1 c8bc abb5 a13e 8550 373e 27c7 7e3d
00000300: 120c 0dbf dcdc 973d f5a8 9b3e 772f 5f3e
00000310: 49d6 9f3e 03ac 94be c3f8 a3be 4556 f93b
00000320: ce81 bbbe fe6f edbd 6299 fa3e 6fc7 f23d
00000330: bc87 8a3e ebcf 3fbe 74fa acbc 0d13 773d
00000340: 53d8 ee3d c0fa 4d3d f738 0f3e 429d d6bd
00000350: 17d7 cc3e 2ae2 4fbe fe5c 603e 42a1 3ebe
00000360: 4678 87be f3b1 733c f862 b9be ce2e 473d
00000370: 5599 83be b2e0 b1be 41ce a7bc 8808 e63d
00000380: b713 a2be b524 603e 06ae 4f3e 97c8 9d3d
00000390: 9194 a1be b80d aebe 43e4 3f3e 3a98 9ebd
000003a0: 7033 b9be c643 b03b 15a7 873e 8078 733e
000003b0: 0ebd 573e b16d 7b3d 66e0 c43d 9297 453e
000003c0: f0d6 1d3e ce62 a93d b276 023e 7f79 043e
000003d0: bacc ae3e 3d15 9bbe 4e1c c23e 27d7 c3bd
000003e0: 7e07 e5be 78a9 913d 5050 7ebe 7563 c93e
000003f0: 4fff be3d 7f05 dbbe 8c44 c8bb f10e 293e
0.34313154 0.1033341 -0.07778435 -0.36008534 0.38555112 0.29192504 -0.48715457 0.15824752
0.008122094 -0.05073929 -0.44371304 -0.10839145 -0.18257119 -0.27533576 0.03130128 0.06222005
0.1218751 0.12051003 0.08980773 -0.102043115 -0.005102774 -0.02822738 0.04906385 0.07791969
0.43002805 0.09293201 -0.4228153 -0.44007635 0.18935521 -0.12808941 0.13947472 0.040663008
0.32860953 -0.1998584 -0.18886508 -0.045640502 0.23599891 0.40984043 -0.18277456 -0.107023776
0.39946795 0.029697556 -0.68919396 -0.09715262 -0.34768844 -0.01314367 -0.11205566 0.14674121
0.09809105 0.18408757 -0.3231047 -0.35218364 0.07453199 0.22944005 -0.3882289 0.13084753
-0.2387013 0.021062583 -0.3629345 -0.29595348 0.10695745 0.13262103 -0.17095691 0.14204092
0.24033596 -0.2650428 -0.42382535 0.22079226 -0.19330266 0.38975713 0.26862532 0.067018226
0.39282683 0.10632735 0.060954034 0.050010316 -0.2649532 0.19111581 0.12590367 -0.12806638
-0.009280567 -0.016995274 -0.30625868 -0.25257137 -0.50082004 0.2865876 -0.3285634 3.1141317e-05
-0.3243221 0.041724216 0.11029685 0.010191144 -0.5380473 0.12817252 -0.031162322 0.07385242
0.08458852 0.02588793 -0.1276667 -0.07395737 0.45987913 -0.056357518 -0.36849985 0.112884246
-0.40996775 -0.06247484 0.28480932 -0.34717643 -0.11680918 -0.3327931 -0.07441549 0.18767072
-0.027295547 -0.07212196 0.2481428 0.2577176 0.28960547 -0.3014836 -0.12499491 0.12849449
0.25400892 0.0648709 -0.45468083 -0.42025262 0.042766303 0.07650678 0.06398756 0.07440111
-0.0124115 0.15577078 -0.19352041 0.2977293 0.05244089 -0.13558473 0.023755942 -0.035037696
-0.053408563 0.1536678 -0.23819864 -0.03824952 -0.046976563 0.17626554 0.01962861 0.14085686
0.102704875 0.0034921432 0.008494634 0.13712822 0.027799968 -0.14482617 -0.1816189 0.09286585
-0.851104 0.015302318 -0.14136243 0.12425407 0.3634263 0.15046018 0.0701641 0.05848928
0.14455234 -0.23883724 0.015048346 0.10691133 -0.57153225 -0.21192315 0.298407 0.050111603
0.3349256 0.09481142 -0.6530914 0.21645018 0.20629624 0.103510134 0.1906544 -0.2896363
-0.1745552 -0.000651328 0.047232255 0.16515115 -0.58395356 0.25966543 0.12848377 -0.23847455
0.21949154 0.11274791 0.34631917 0.3005515 -0.024506198 0.31583914 0.1790181 0.062201645
-0.5509654 0.074151725 0.3040234 0.2179545 0.31218174 -0.29037485 -0.32025728 0.007609161
-0.3662247 -0.115936264 0.48945147 0.11854445 0.27056682 -0.18731658 -0.02111552 0.060320903
0.11662354 0.050287962 0.13986574 -0.10479213 0.4000785 -0.20301118 0.21910474 -0.18616202
-0.2645895 0.014873969 -0.3620832 0.04862862 -0.2570292 -0.3474174 -0.020484092 0.11232096
-0.31655666 0.21889003 0.20281228 0.07704275 -0.3155866 -0.33994842 0.18739419 -0.07743879
-0.36172056 0.005379173 0.2649466 0.23776436 0.21068212 0.061383907 0.09613113 0.192961
0.15414023 0.082707986 0.12740591 0.12936972 0.3414057 -0.3028964 0.3791222 -0.095625214
-0.4473228 0.07112402 -0.24835324 0.39333692 0.0932604 -0.4277763 -0.006111687 0.16509606

conv2d_1/Conv2D_bias f4 [64]
00000000: 1cf1 783a e752 03bd f37b 9bba f44c e9bc
00000010: d4ee 96bd 7215 a7bd e5bc a5bd e31f 43bd
00000020: e9c2 a3bd 872f 35bd 9632 c3bd 294d a9bd
00000030: 765c 1bbc 74e6 99bc a653 9abd 79ab 56bd
00000040: e5e0 07bd 0d1d 0cbd 37b6 17be 7340 00be
00000050: bcb2 1dbd c6f4 4bbd e8ff eebd 2706 c2bd
00000060: 5876 8cbd 8ec7 053c 4be8 2bbc c8bb 84bd
00000070: 7881 fd3b f827 eabd 224c a0bd 3810 01bd
00000080: 8c87 d2bd 5510 dabc c2e8 6bbd 9e9a 703c
00000090: b8bf 07bd edb2 893b 6c7a dcbb 4815 093d
000000a0: 0531 cebd c0f0 d3bd 15d0 50bd ee04 49bc
000000b0: 1751 0cbd ef2a b5bd d14c d43c cf71 19bd
000000c0: c379 2dbd 90c7 c3ba 0aa2 1f3d fc7a 0ebd
000000d0: abdc 2ebd f5a2 5dbd 387d b9bc b758 d2bc
000000e0: ddc6 5ebd 7545 e3bd 137f 51bd d25e c0bd
000000f0: 370b ca3c a06e 22be fc9f 6dbd 8856 85bd
0.00094963773 -0.032061484 -0.0011862501 -0.028479077 -0.073697716 -0.08158387 -0.080926694 -0.04763783
-0.079961605 -0.04423478 -0.09531133 -0.0826667 -0.009482494 -0.018786646 -0.07535486 -0.052409623
-0.03317346 -0.034207392 -0.14815603 -0.12524585 -0.038500533 -0.04979398 -0.11669904 -0.0947383
-0.0685851 0.008165253 -0.010492395 -0.06481129 0.007736381 -0.11433405 -0.07827021 -0.031509608
-0.1027976 -0.026619116 -0.057595022 0.014685301 -0.03314182 0.004202238 -0.006728461 0.03346756
-0.100679435 -0.10348654 -0.050979692 -0.012269242 -0.03425702 -0.088460796 0.025915535 -0.037462052
-0.04235245 -0.0014936794 0.038972892 -0.034785256 -0.042690914 -0.054110486 -0.022642717 -0.025677068
-0.05438887 -0.11097232 -0.051146578 -0.093930855 0.02466355 -0.15862513 -0.0580139 -0.06510645

conv2d_1/kernel f4 [64, 3, 3, 32]
00000000: c7cc 96bc ca6a cdbd 0393 18be 2cde c7bd
00000010: d53d b2bd 24bf 17be fd79 cb3d 46b0 b13b
00000020: 0e78 233e ceb2 183e d812 e9bd a382 debc
00000030: c842 febd fe0f 653c 2039 a8bb 6f02 833d
00000040: 9c23 32bd 0007 6a3d 51d1 15bc 5782 9ebc
00000050: 05d6 c1bd 8d73 ea3d 3798 cdbd d8aa e23d
00000060: d50c f23d 43ae 4b3d 637a f03d c176 96bd
00000070: a3c1 6abc 1626 243e 973e 733d c4f3 6ebc
00000080: 25f1 743d 24cf 4c3b 21da cf3d 1b4d 363e
00000090: 9a6e 1a3d 6513 1d3c 06a7 203e 1617 f13d
000000a0: 7b5a 7bbc 7cba 393e ba00 24be 6874 e73d
000000b0: f405 eb3d dbd4 bf3d 585f 3c3e f75c 0b3e
000000c0: 37a1 d63d 6862 0d3e 5a92 e33d b427 863d
000000d0: aeb2 5abd 9471 b3bc 5e46 c6bb 9112 2c3e
000000e0: e92a 9e3d e807 c43d 3b19 a43d 44dd 363e
000000f0: ad15 12bc c597 743c 4892 043e 2a04 2d3d
00000100: 2bec 493e 3963 c5bd 9581 07be bc9a 063e
00000110: a2d4 5d3e 9346 583e 6a5a 253d 6025 853c
00000120: bed9 35be cc5b 203e bf86 43be 12bb 0a3e
00000130: c162 1dbd 69fa 1cbd 238f 633c 9cd1 b83c
00000140: c8b3 edbc 0874 c43c e078 52bd b653 7f3c
00000150: 7ad0 51be 7f1f 82bd b85d 03bd 005e 0d3e
00000160: 903f ac3d eed3 c73d 9e64 07bd e9bc 193e
00000170: 3f35 42be 3818 2b3c 5849 d73d 912c f33d
00000180: 20c5 bd3d b216 53be afb5 ecbe 626d 88bd
00000190: 19ab afbe 72b0 073d 2585 db3d bdbf 8ebd
000001a0: fab0 733e 32b8 bb3c b067 d6b7 4124 57bd
000001b0: 9f28 d1be 4cc0 d1bb 793f 973d 4fc8 72bd
000001c0: 8e97 9f3a 073f ad3c a893 53be c8d3 30be
000001d0: 72c8 59be 08c9 b53d c0f2 d3be 33b2 86bc
000001e0: 9e2c f8bd ff9a c0bd 62e8 1b3e 2013 34be
000001f0: 0444 25bc 2c8a 4d3e 62d4 9ebd f723 b6bd
00000200: 3ccc 5f3e c984 35be 1337 8ebe 7be3 843b
00000210: ea39 cf3d 1e52 783e 6a25 213d 9252 403d
00000220: 5725 393d b322 643d 751e afbd 851f 66ba
00000230: 0941 32be c9d3 0fbd 4984 b23c 38c8 303d
00000240: 63bb cc3c 0aad babc 9281 e8bd 7b65 55bd
00000250: 3f6f 71be 5f5a 963d 7bbd 90be 6237 df3d
00000260: 23b7 f9bd 6cc9 ac3d ebce 1bbe 6e54 2bbe
00000270: 7a26 afbd 6d02 293d 2763 933d e355 b0bc
00000280: 3ddc 003d 9626 96be 22e2 80bd 3aa6 42bd
00000290: 57fd be3e 674d 133d aa07 28be 9c49 29bd
000002a0: 8743 15be 76e6 3cbe c3f4 34be 156e 6cbd
000002b0: 6210 4bbd 3bbd 9cbe d0c6 64bd 2f07 8ebc
000002c0: 72e7 ee3b edcb c7bd f0da a1be 761a ddbe
000002d0: c6e3 adbe f282 e8bd 86eb 933b c27e 0a3e
000002e0: c18a a23e a2c6 0cbe 917a 33be 2104 ccbd
000002f0: a581 12be aa9f 7cbe b53b 3bbe 40d5 adbd
00000300: b953 853c af14 47bd cf7f 023e fc05 1cbe
00000310: c802 7fbe c7d0 fc3d 0731 2ebe c053 a9be
00000320: ff82 1b3e ea1b eebd 1211 263d 7ba4 2ebe
00000330: b87d 8b3d 2c03 52be 7035 3dbe b858 7ebe
00000340: 2be9 54be 0e80 8ebe 347d 43be 3338 15bd
00000350: d51a 82be 3421 b6bd fbdb dfbc 36a4 65be
00000360: c3f0 c4be 6c78 16be fb61 d7bd dd89 93be
00000370: 621f 63be 0578 00be 9885 80be 2300 70be
00000380: 1b35 c33d a645 afbd be9d df3d 75eb 10be
00000390: 84fa 11be 05dc 033e 0aef 04be 7c00 4ebd
000003a0: 6ec9 423d 48ed 12be 6113 c5bd 54c7 f13d
000003b0: 1640 2e3e 043d e8bd c15a 27be 61cd e7bd
000003c0: 11dd f2bd d1f5 0cbd 352e 6ebe aca2 bd3c
000003d0: ef6c b9be fa43 2ebe 0971 743e 4736 36bd
000003e0: 5150 833d fb75 56bd 0daf 3bbc 16de 3f3e
000003f0: dd1b 39be 83d8 bbbd cf8e 42be aa0f 08be
-0.018408192 -0.10030134 -0.1489983 -0.09759173 -0.087032 -0.14819008 0.09935377 0.0054226248
0.15963766 0.14911959 -0.11380547 -0.027161902 -0.12415081 0.013980864 -0.005133763 0.063969485
-0.04349099 0.057135582 -0.009144143 -0.01934926 -0.09464649 0.11447821 -0.10038798 0.11067742
0.11818854 0.049726736 0.117420934 -0.07346869 -0.014328393 0.16030154 0.059385862 -0.014584485
0.059800286 0.0031251395 0.10149027 0.17802851 0.037703134 0.009587144 0.15688714 0.117719814
-0.015341396 0.18137544 -0.16015902 0.113014996 0.11475745 0.09366771 0.18395746 0.13609682
0.10479968 0.1380707 0.11111899 0.065505415 -0.05339306 -0.021904744 -0.006050869 0.16803958
0.07723028 0.095718205 0.08012625 0.17857844 -0.008916301 0.014928763 0.12946427 0.0422403
0.19718997 -0.09638066 -0.13233025 0.13144964 0.21663144 0.21120672 0.04036943 0.016253173
-0.17758843 0.15660018 -0.1909437 0.13547924 -0.038424257 -0.038324747 0.013889107 0.022560887
-0.02901639 0.02398111 -0.051384807 0.015583923 -0.20489684 -0.06353664 -0.0320718 0.1380539
0.08410561 0.09757219 -0.03305494 0.1501347 -0.18965624 0.010442786 0.10512036 0.11873735
0.09266114 -0.20614126 -0.46232364 -0.06661488 -0.34310225 0.033127256 0.10718755 -0.06970165
0.2379798 0.02291498 -2.5559071e-05 -0.05252481 -0.40851304 -0.0064010974 0.07385153 -0.05927306
0.0012175904 0.021148218 -0.20661795 -0.17268288 -0.2126787 0.08876234 -0.4139614 -0.016442394
-0.12117885 -0.09404563 0.15225366 -0.1758542 -0.010087017 0.2007224 -0.077553526 -0.088935785
0.21855253 -0.17726435 -0.27776393 0.004055438 0.10118468 0.24250075 0.03934232 0.046953745
0.045201626 0.055697154 -0.08550731 -0.00087785005 -0.17407621 -0.035114083 0.021791594 0.043159693
0.024991697 -0.02278759 -0.113528386 -0.052098732 -0.23577593 0.07341456 -0.28269562 0.10899235
-0.12193134 0.08436856 -0.15215652 -0.16731426 -0.08552261 0.04126208 0.07196646 -0.021525329
0.031460036 -0.29326314 -0.062931314 -0.047521807 0.37302658 0.03596249 -0.16409174 -0.041329965
-0.14576541 -0.18447289 -0.17671494 -0.05772217 -0.04957617 -0.3061312 -0.055853665 -0.01733741
0.007290774 -0.09755693 -0.3161235 -0.4318425 -0.3396284 -0.11353101 0.0045141606 0.13524917
0.31746486 -0.13747647 -0.17527224 -0.09961725 -0.14307268 -0.24670282 -0.18284495 -0.0848794
0.016275274 -0.04860371 0.12744068 -0.15236658 -0.24903405 0.123445086 -0.1701089 -0.3307171
0.1518669 -0.11626418 0.040543623 -0.17054932 0.06811088 -0.20509022 -0.18477416 -0.24838531
-0.20792072 -0.27832073 -0.1909073 -0.03643055 -0.25411096 -0.08893052 -0.027326575 -0.22425923
-0.38464937 -0.14694375 -0.10516735 -0.2881612 -0.2217994 -0.12545784 -0.25101924 -0.23437552
0.095316134 -0.08558206 0.10918759 -0.1415232 -0.1425572 0.128769 -0.12981811 -0.05029343
0.04755538 -0.14348328 -0.09622837 0.11805597 0.17016634 -0.11339763 -0.16343214 -0.1131847
-0.11858571 -0.034414116 -0.23259814 0.023148857 -0.36215922 -0.17018119 0.23871244 -0.044485357
0.064118035 -0.05235861 -0.01145531 0.18737063 -0.18077035 -0.09172156 -0.1899979 -0.13287225

dense/MatMul_bias f4 [10]
00000000: a251 173d 03cc 2d3e 2e17 54ba a7fd 42bd
00000010: c05c 9cbd e797 42bc e5c3 28bd 4a8a 043d
00000020: 877e 483b 8f40 e3bc
0.036943085 0.16972356 -0.0008090612 -0.047605183 -0.07634878 -0.011877037 -0.041202445 0.032358445
0.0030592994 -0.027740745

dense/kernel/transpose f4 [10, 1600]
00000000: 03bf ff3c 461a cf3d fe49 34bd f8cf d53c
00000010: 3305 10bd 0713 1bbc 7b70 cc3d 9984 12bd
00000020: 0ffd c03c 0be8 adbd e016 7bbc fcff b53d
00000030: 3b14 18bd c4e9 1dbe 096c 95bd cef1 a83d
00000040: 4121 79ba 3a0f c73b 0357 ff3c b47d 1f3b
00000050: a339 1c3d ca83 23bb 3d0f 9bbd 419e febc
00000060: c613 b439 947b d7bd bba8 9d3d 8869 66bc
00000070: d783 f9bd d1eb a1bc 873d e7bd 6542 83bd
00000080: 3f0c d8bd 7e32 983c ef6c 79bc 53b3 91bc
00000090: e332 6c3d 6083 b73d 1741 f63c 538f 943c
000000a0: 546f 853d 7d56 cc3c 6724 d0bc 1148 cabd
000000b0: 5793 92bd 704c 40bd fdc6 82bc caf3 19bd
000000c0: 59e3 29be c04f fd3c a0ab e03d 8c84 35bd
000000d0: b480 e0bc 6464 0bbd ebd9 6e3d 53d0 b7bd
000000e0: c7ba 03be bfea adbd a36a 03be 141a d5bb
000000f0: 0e02 a1bb 4885 96bd 3138 613a 7c72 1abe
00000100: 622a c9bd 2c1c bcbc 3d42 da3c 5484 893d
00000110: 8039 bcbc 9a4a aebd 4cca 73bd 4856 9fbd
00000120: b785 d13c 2fee 22be 216f e93c 3441 20bb
00000130: ba1c 2cbe fa1a 93be daf2 02be 7838 a53d
00000140: 035c 91be ad8b c33a 4080 b7bc f502 103b
00000150: 0437 acbd f004 34be 94d3 563d 828f deba
00000160: a9be e3bd 719d 11be 3696 1e3c 29c5 913d
00000170: 9a81 95bd 1606 0ebe 35a7 95be f220 22bd
00000180: 94c7 39bd 7780 d73d 12d3 94bd 3177 723b
00000190: 8d05 c3bd 8bff b0bb fd1a cc3d 66cb a1bc
000001a0: 0c29 b13c 3959 73bd 9ab0 55be a91b 583d
000001b0: badf 11bd 2891 823c 9b17 e3b9 06ad f9bc
000001c0: 620f d2bd aa1b 68bd 4140 46bd f9bd d1bc
000001d0: e2a4 06be 686d 3bbe 31a4 5dbe 8805 84be
000001e0: 6cb9 5dbe 54bb 86bd 7974 65be c17c d9bd
000001f0: 4186 16bd f2c6 68bd cf5d b2bc 2c49 ffbd
00000200: f0d1 6fbd ee25 193d e7c3 86bc 7be6 40be
00000210: 229c bcbb 56df 5fbd eaa3 313d b60f 83bb
00000220: 48e4 adbd 3e35 96bd dc72 8e3d 03ad 8bbc
00000230: 9eba 54bc 1c48 37bd 5cc6 0fbe b677 5bbd
00000240: 6286 96bd 55c3 a6bd bc8c 24bd e50d a3bd
00000250: a5be 8cbc e74b e4bd 63c5 163c f3b1 9ebc
00000260: 9d12 dabc 5f12 aebe 36f0 e23c fda3 88bd
00000270: 9a99 a1be 1869 023d 7ced 8fbe 997b 61bd
00000280: 210f 95bd a34a 19bd 1e8c e9bc 90e0 35bc
00000290: 773a 9bbc 9596 033c 5e6d 7c3c 6abb 8a3a
000002a0: 702b 4dbc fca3 03bd 1756 27bd bf66 a8bd
000002b0: 53c8 13be b247 fcbc af6e 913d 5d23 333d
000002c0: 138d f2bd 4510 0ebe 2d8b e03c 391a 3d3d
000002d0: 5a08 1abe ae89 51bd 227e aabb 6d7b 22be
000002e0: cd9c f1bd a2c2 68bd 6b71 d8bd ea1a 30be
000002f0: 7a47 03bd fab7 5f3d 0804 9f3b 8354 f0bd
00000300: 6093 83bd 1fc5 fd3c f00b 473d 2e61 e4bc
00000310: fc28 853c 4603 033e 5555 9a3d dba7 d2bb
00000320: 800e c63d 8b30 82bd f10b 39bd cbf1 af3c
00000330: e4b1 fbbd 11da a43c ed06 88bd 150b af3d
00000340: 5ec6 ab3d 34ff 783b 901c be3d 8160 993c
00000350: af83 ce3b dfb8 abbd b208 393c 71b4 e13c
00000360: 1714 66bd 37c4 1dbe cce9 c039 99d5 7f3d
00000370: e0f9 05be e939 32ba 5f25 14be b2a3 263d
00000380: fe10 5fbc b57b 613d b39c 3cbc e7e2 563c
00000390: 9d65 ca3c a6d6 02bd df05 143d 414e fc3c
000003a0: 561b c0bb 95d3 5c3d 00ab afbc 1c46 b23c
000003b0: 9142 8bbe e13c df3d 3fe9 8b3c 200a 763d
000003c0: 115e 04bd 39ed 10be 5488 aebd 7bba d63c
000003d0: c3c0 853d 60e0 553c d046 1dbd 15fe 7fbc
000003e0: 0260 363a 6773 99bd 971a 1c3d 98bd a0bc
000003f0: c05b 0cbe 03ee 1e3c e365 fd3d 73da 84bd
0.031219011 0.10112433 -0.044015877 0.026100144 -0.03516121 -0.009464986 0.099823914 -0.035770986
0.023558168 -0.08491524 -0.015325278 0.08886716 -0.03712867 -0.15421206 -0.07295997 0.082492456
-0.00095035514 0.006074813 0.03116942 0.00243364 0.038140904 -0.0024950379 -0.07571266 -0.03108132
0.00034347008 -0.105216175 0.076981984 -0.014063247 -0.121833496 -0.019765766 -0.11291032 -0.06409148
-0.10549211 0.018578764 -0.015223726 -0.017785704 0.057665717 0.08960605 0.030060334 0.018134749
0.06515375 0.024943585 -0.025407983 -0.09877027 -0.07157009 -0.046947896 -0.015964026 -0.03758601
-0.16590632 0.030921817 0.10970235 -0.04431586 -0.02740512 -0.034031287 0.05831329 -0.089752816
-0.12864219 -0.0849204 -0.12833647 -0.006503353 -0.004913575 -0.0734964 0.0008591442 -0.15082735
-0.09822537 -0.022962652 0.026642913 0.06714693 -0.022976637 -0.08510323 -0.059519097 -0.07780129
0.025576456 -0.15911172 0.028495373 -0.0024452927 -0.16807833 -0.2873152 -0.12787953 0.08067411
-0.28390512 0.0014918946 -0.022400022 0.0021974419 -0.08408931 -0.17580009 0.05244787 -0.0016980025
-0.1112035 -0.14220215 0.009679368 0.071176834 -0.0730011 -0.13869509 -0.2922913 -0.0395822
-0.04535635 0.105225496 -0.07266821 0.0036997313 -0.09522543 -0.005401557 0.09966085 -0.019750308
0.021626018 -0.05941126 -0.2086815 0.052760754 -0.035613753 0.015938357 -0.000433144 -0.030478012
-0.1025684 -0.056667008 -0.04840112 -0.025603281 -0.13148835 -0.18303454 -0.21644665 -0.2578547
-0.21652764 -0.06578699 -0.22407712 -0.10619498 -0.03674913 -0.056830354 -0.021773247 -0.12465128
-0.05854982 0.03738969 -0.016450835 -0.18837921 -0.005755917 -0.05465635 0.04336921 -0.0039996756
-0.08490807 -0.07334374 0.069555014 -0.017050272 -0.012983946 -0.044746503 -0.14040512 -0.053580962
-0.0734985 -0.081427254 -0.040173277 -0.079616345 -0.01718075 -0.1114729 0.009202334 -0.019371962
-0.026620204 -0.3399839 0.027702432 -0.06671903 -0.315625 0.031838506 -0.28110874 -0.055049513
-0.07278276 -0.037424695 -0.028509196 -0.011100903 -0.018948777 0.008031507 0.015406935 0.0010584418
-0.012522563 -0.03213881 -0.040853586 -0.08222722 -0.14431886 -0.030795906 0.07101189 0.043734897
-0.11843314 -0.13873394 0.027410114 0.046167586 -0.15042248 -0.051156692 -0.0052030245 -0.15867396
-0.117974855 -0.05682624 -0.10568508 -0.17197767 -0.032050587 0.054618813 0.0048527755 -0.11734869
-0.06424594 0.030977784 0.04859537 -0.02787837 0.016254894 0.12794217 0.07535807 -0.0064287013
0.096707344 -0.06356915 -0.045177404 0.0214776 -0.12289789 0.020123513 -0.06641946 0.085470356
0.08387445 0.003799391 0.092827916 0.018722774 0.006302319 -0.08384871 0.011293577 0.027551861
-0.056171503 -0.15406881 0.00036795286 0.062459562 -0.13083601 -0.00067987904 -0.14467381 0.040683456
-0.013614891 0.055049617 -0.011511969 0.013115621 0.024706656 -0.031942986 0.03613841 0.030799033
-0.0058626337 0.053912718 -0.021443844 0.021761946 -0.27199224 0.109002836 0.017078994 0.06006825
-0.03231627 -0.14152993 -0.08522096 0.026211968 0.06530907 0.013053983 -0.03839761 -0.015624543
0.00069570553 -0.074927144 0.038111296 -0.019621655 -0.13706875 0.009700301 0.12372949 -0.064869784
